…
ri":"https://localhost:8080/"},"id":"1vKzcclBwbfs","executionInfo":{"status":"ok","timestamp":1709980210619,"user_tz":-330,"elapsed":1287,"user":{"displayName":"Smriti","userId":"17048346029640936865"}},"outputId":"8d97b722-95c7-4614-d270-c737f7169690"},"execution_count":16,"outputs":[{"output_type":"stream","name":"stdout","text":["Model: \"sequential\"\n","_________________________________________________________________\n"," Layer (type)                Output Shape              Param #   \n","=================================================================\n"," time_distributed (TimeDist  (None, 20, 64, 64, 16)    448       \n"," ributed)                                                        \n","                                                                 \n"," time_distributed_1 (TimeDi  (None, 20, 16, 16, 16)    0         \n"," stributed)                                                      \n","                                                                 \n"," time_distributed_2 (TimeDi  (None, 20, 16, 16, 16)    0         \n"," stributed)                                                      \n","                                                                 \n"," time_distributed_3 (TimeDi  (None, 20, 16, 16, 32)    4640      \n"," stributed)                                                      \n","                                                                 \n"," time_distributed_4 (TimeDi  (None, 20, 4, 4, 32)      0         \n"," stributed)                                                      \n","                                                                 \n"," time_distributed_5 (TimeDi  (None, 20, 4, 4, 32)      0         \n"," stributed)                                                      \n","                                                                 \n"," time_distributed_6 (TimeDi  (None, 20, 4, 4, 64)      18496     \n"," stributed)                                                      \n","                                                                 \n"," time_distributed_7 (TimeDi  (None, 20, 2, 2, 64)      0         \n"," stributed)                                                      \n","                                                                 \n"," time_distributed_8 (TimeDi  (None, 20, 2, 2, 64)      0         \n"," stributed)                                                      \n","                                                                 \n"," time_distributed_9 (TimeDi  (None, 20, 2, 2, 64)      36928     \n"," stributed)                                                      \n","                                                                 \n"," time_distributed_10 (TimeD  (None, 20, 1, 1, 64)      0         \n"," istributed)                                                     \n","                                                                 \n"," time_distributed_11 (TimeD  (None, 20, 64)            0         \n"," istributed)                                                     \n","                                                                 \n"," lstm (LSTM)                 (None, 32)                12416     \n","                                                                 \n"," dense (Dense)               (None, 2)                 66        \n","                                                                 \n","=================================================================\n","Total params: 72994 (285.13 KB)\n","Trainable params: 72994 (285.13 KB)\n","Non-trainable params: 0 (0.00 Byte)\n","_________________________________________________________________\n","Model Created Successfully!\n"]}]},{"cell_type":"code","sourc
…
